scene_parse/attr_model.pth (torch, 4580 bytes, 8 tensors)

mlp.0.weight f4 [8, 6]
000000 50 ea 14 80 23 c2 0c 80 5b 79 0d 80 dc a7 0e 00
       -1.920765e-39 -1.171669e-39 -1.237396e-39 1.345914e-39
000010 2e 3e c7 bb 23 2c df ba c7 cb 87 be fe 40 8e be
       -0.0060804104 -0.0017026704 -0.26522657 -0.2778396
000020 9c 90 b6 be c6 1c 2d bf 65 1e 78 3e 40 b0 8b bd
       -0.35657203 -0.6762203 0.24230345 -0.068207264
000030 0f ea 9a bf e8 7a a3 bf 49 5e a5 bf a5 ca 44 3f
       -1.2102679 -1.2771883 -1.2919399 0.7687171
000040 1f 01 49 bd 2a c0 7d 3e 10 89 6e 3f 27 d5 59 3f
       -0.049073335 0.24780336 0.9317789 0.8509087
000050 de e1 36 3f 82 0a 3b be c4 7e 56 3d 5d 74 a0 3e
       0.71438396 -0.18265727 0.052366987 0.31338778
000060 c9 6d 0c bf 1e c4 06 bf 7d 10 30 bf 29 04 9e 3f
       -0.5485502 -0.52643 -0.6877516 1.234502
000070 6b ba 06 3e 83 db 2e 3e 35 cf 38 00 26 f1 2e 00
       0.1315705 0.17075925 5.21712e-39 4.31094e-39
000080 77 9b 46 80 18 5f 39 80 f5 14 d8 a4 5e c0 78 9a
       -6.484255e-39 -5.268736e-39 -9.371057e-17 -5.144059e-23
000090 4a 3d 98 af df 7f e5 23 ca 30 ca 22 96 bf 9e b0
       -2.7692187e-10 2.4882385e-17 5.4803867e-18 -1.1550465e-09
0000a0 d3 cd a3 bc a1 d7 76 3b 89 09 ae be 3d 17 a9 be
       -0.019995606 0.0037665146 -0.3399165 -0.33025542
0000b0 d1 23 e2 be f9 fc d0 be 6b b9 ae 3d 76 07 c2 3d
       -0.4416795 -0.40818003 0.085314594 0.09474079

mlp.0.bias f4 [8]
000000 3f 17 1a 00 5e 49 16 bf df 3c 0f c0 9c cf 98 3f
       2.396062e-39 -0.587057 -2.2380903 1.1938357
000010 3b da 63 bf 1c ca 21 00 10 38 af b5 99 13 68 bf
       -0.8900487 3.103075e-39 -1.3054832e-06 -0.90654904

mlp.2.weight f4 [16, 8]
000000 48 ba 16 00 d2 07 81 b2 75 17 27 ae 27 f1 b0 b6
       2.087206e-39 -1.5021133e-08 -3.7992238e-11 -5.2732826e-06
000010 b6 56 a9 b5 6e 07 0e 00 c6 c8 28 80 ab 68 3a b0
       -1.2616717e-06 1.288362e-39 -3.745444e-39 -6.781515e-10
000020 3e 92 bb 81 18 9e 74 9d ed fc 23 80 9e f4 22 a3
       -6.89028e-38 -3.2374864e-21 -3.304975e-39 -8.833837e-18
000030 5c 93 62 a1 ab fb 13 00 2e e6 3d 80 09 43 1c 06
       -7.6766807e-19 1.835156e-39 -5.684538e-39 2.938959e-35
000040 59 bf 0d 00 ac 83 02 be 5c 9f 02 3e 88 f6 2c be
       1.262504e-39 -0.12745541 0.12756103 -0.16890919
000050 4f d3 03 3e 7d 78 09 00 bc eb 33 3c 29 2f b6 3e
       0.12873577 8.69743e-40 0.010981496 0.35582855
000060 72 ff 06 80 8b e1 82 3e 5f 71 bc 3e a2 e3 94 be
       -6.4265e-40 0.255627 0.36805245 -0.2907992
000070 4a 8b 0b 3c f3 a6 42 80 19 5f 94 3c 07 69 4a 3e
       0.008517096 -6.121033e-39 0.018111752 0.19766627
000080 fe 6f 04 00 dc 49 67 3e 4c fc e0 3d cf 1e 19 be
       4.07517e-40 0.22586769 0.10985622 -0.14953159
000090 65 bc 3a 3e 57 fd 2f 00 91 0d a9 bb c1 b6 60 be
       0.1823593 4.40715e-39 -0.005159088 -0.21944715
0000a0 40 a4 40 80 0b f2 1a be 7d 59 3a be 0e a3 9f 3e
       -5.936394e-39 -0.15131395 -0.181982 0.31179088
0000b0 73 7b 36 be 4d 97 49 00 ca 0c 2b bc b8 51 47 3e
       -0.1782053 6.758268e-39 -0.010440061 0.19464767
0000c0 1e 5e 04 80 9b b2 8b be 30 de ae be 2d ed ac 3e
       -4.01105e-40 -0.27284703 -0.3415389 0.337747
0000d0 06 ce 83 3a b5 90 20 80 9a 04 0b bc 33 ab da 3d
       0.0010055907 -2.990647e-39 -0.008484984 0.10677185
0000e0 f5 b2 32 80 54 7b 46 be 4d e8 a0 3e 2e ec 9b bd
       -4.655972e-39 -0.19382983 0.3142723 -0.07613407
0000f0 c8 1c b3 3e f9 7a 34 00 3e e2 42 bc 29 3a 05 be
       0.34982896 4.81956e-39 -0.011894761 -0.13010468
000100 a3 f9 12 80 06 7e 75 3d 79 c1 fd 3d d3 42 d7 bd
       -1.742592e-39 0.05993464 0.123904176 -0.105107926
000110 6a 48 22 3d 7e 76 16 80 dd c8 c4 b9 ac 6a bb 3a
       0.03961984 -2.062888e-39 -0.00037533688 0.0014298758
000120 ea 3e 3a 80 13 31 31 b9 ef 87 dd b3 f3 b2 04 ba
       -5.349028e-39 -0.00016898317 -1.03158406e-07 -0.0005062066
000130 05 96 c3 b9 a7 7c 01 00 ec 9f 0d 80 e4 4b 57 b7
       -0.00037305072 1.36552e-40 -1.25123e-39 -1.2832668e-05
000140 12 dd 24 00 1f 5f 80 3e d6 9b 7d be 6b bc 81 3e
       3.385383e-39 0.25072572 -0.24766478 0.25339064
000150 76 db 65 3e e2 3b 42 80 d5 bf 1b 3c 3b 20 1b be
       0.22446999 -6.082625e-39 0.009506186 -0.15149014
000160 a2 38 2e 00 8b 65 af bd d8 90 9f 3e fd b9 19 3e
       4.244749e-39 -0.0856429 0.31165195 0.15012355
000170 97 50 85 3e ff 73 45 00 b5 77 69 ba e6 92 75 be
       0.26038048 6.378261e-39 -0.00089060824 -0.23981819
000180 9e b0 15 00 67 90 6b 3e 51 e5 10 3e f5 18 95 3d
       1.991904e-39 0.23004304 0.14149977 0.07280151
000190 e1 99 33 3e a7 f7 40 00 a0 15 eb bb 58 47 09 be
       0.17539169 5.966313e-39 -0.0071742088 -0.13406122
0001a0 02 1b 0b 80 4a 37 a8 3d 30 10 84 be 10 2e 81 3e
       -1.019879e-39 0.082136706 -0.257936 0.25230455
0001b0 9c 29 a9 be 0b 8d 0a 80 7b ea d3 3c b5 c1 0d 3e
       -0.33039558 -9.68952e-40 0.025868645 0.13843425
0001c0 db 10 1c 80 ab 0e 98 3d 5a bd 81 3e 39 0d 0e 3e
       -2.57744e-39 0.07424673 0.25339776 0.13872232
0001d0 d8 3f ae be 2c e3 49 80 15 91 9d 3c ad 5c ee 3d
       -0.34033084 -6.785485e-39 0.01923422 0.1163877
0001e0 ca 48 22 80 1e f0 fb 3d 79 b1 97 3e 4f 00 12 3e
       -3.148519e-39 0.12301658 0.29627588 0.1425793
0001f0 64 b8 55 be e0 0f 46 80 11 b1 47 3c 66 7c e4 bd
       -0.2087112 -6.43418e-39 0.012188212 -0.111565396

mlp.2.bias f4 [16]
000000 b0 14 22 80 29 d4 00 00 66 ad e5 bf 09 d3 24 bf
       -3.129828e-39 7.6109e-41 -1.7943542 -0.64384514
000010 23 c4 20 bf 00 c7 66 3f 0b a9 c7 3f b4 6d 9d 3e
       -0.6279928 0.901474 1.5598463 0.3074776
000020 a5 5a 75 bf cf 76 1d 80 7f 9d 11 3e e9 ad 9c bf
       -0.9584144 -2.70585e-39 0.14220236 -1.2240573
000030 cf dd a1 3e 7b 50 a7 3f 02 ce 0f bf a3 3d ff be
       0.3161454 1.3071436 -0.5617372 -0.49851713

mlp.4.weight f4 [8, 16]
000000 26 eb 22 00 d5 3c 1d 00 03 08 cc be 07 0b 14 be
       3.206762e-39 2.685052e-39 -0.39849862 -0.14457332
000010 c8 4c 0c 3e a6 1c c4 bc cf af a9 3e c8 0b 1d 3e
       0.13701165 -0.023939442 0.33141944 0.15336525
000020 5d 80 68 3d c8 57 97 b8 54 87 0c 3e 55 c2 9a 3d
       0.05676304 -7.2165916e-05 0.13723499 0.07556597
000030 02 cf 76 3e dd 52 09 3e 30 5b d4 3d b7 ce a9 bc
       0.24102405 0.13410516 0.10368955 -0.020728452
000040 e8 58 2d 82 92 36 17 80 cc 59 f5 be b8 7a e5 bd
       -1.2735548e-37 -2.131793e-39 -0.47920072 -0.11205047
000050 cf 7e 84 3d b5 d0 51 3d f4 d1 c6 3e 6b 92 2b be
       0.06469499 0.05122443 0.38832057 -0.16755073
000060 5c ed 88 be 07 99 52 b7 dd 36 91 bd 37 d3 1e bd
       -0.2674359 -1.2552605e-05 -0.070905425 -0.03877565
000070 59 66 10 3e 72 9f cb bd f2 0c 6f bd 77 ac ab bd
       0.14101543 -0.09942521 -0.058361955 -0.083825044
000080 be a7 97 2e af 3e 36 80 25 3b 90 3e 79 64 3f 3e
       6.896482e-11 -4.981603e-39 0.28170124 0.18690671
000090 f1 f8 4d bd 8c 7c 3f 3e 23 6b ca bd 2b 6d 8e 3d
       -0.050286237 0.18699855 -0.09883716 0.06954416
0000a0 ba 36 07 be a3 e3 9d 2f b8 4e f9 3c 66 c5 ee bd
       -0.1320447 2.871988e-10 0.030433044 -0.116587445
0000b0 ef e4 bf bb db 4e 1e 3e 56 5d 25 3d 87 29 bd 3d
       -0.0058561484 0.15459768 0.040372215 0.09236436
0000c0 5d b2 0b b4 16 cf 44 00 3b c0 f3 be 41 cf 89 be
       -1.3010272e-07 6.319102e-39 -0.47607598 -0.26915935
0000d0 84 26 66 3c 41 ef 70 3d 08 45 a5 3e 20 d2 46 3a
       0.014047269 0.05882192 0.3227923 0.00075844117
0000e0 6c f2 9e 3e 8e ae cc 36 1c ef 37 bd ed 3d e6 3d
       0.31044328 6.0999946e-06 -0.044905767 0.1124228
0000f0 d9 a8 9c 3d 0a ea b1 3d d8 87 7b be b9 2b f5 bc
       0.07649393 0.086872175 -0.24563539 -0.029928075
000100 bb b5 0d b8 ae 0b 79 12 c6 4b 29 3e 7b 75 08 bd
       -3.378627e-05 7.8584942e-28 0.16532812 -0.033315163
000110 a4 d4 0f 3e 9d 29 53 3e 78 6e 44 be cf a0 a1 3e
       0.1404596 0.20621343 -0.19182765 0.31568
000120 ad 66 72 3e 1c 96 41 36 03 59 1d be 7b 92 b0 3e
       0.2367198 2.8846616e-06 -0.15365987 0.34486756
000130 24 db 54 3e 05 3f 4e bf 4e 5f b3 be 08 66 66 be
       0.2078672 -0.8056491 -0.3503365 -0.2249986
000140 84 c2 c9 05 2a de 1d 00 31 65 e8 be 2f 0b e0 3d
       1.8973403e-35 2.742927e-39 -0.45389703 0.10939633
000150 a2 67 9d 3c 47 b1 0f 3e 14 eb e2 3e 36 fe 43 3e
       0.019214455 0.1403247 0.44319975 0.19139943
000160 c8 6f 98 be ce 5d 2a b9 bb fd 02 3e 65 36 97 be
       -0.29772782 -0.00016247408 0.12792103 -0.29533687
000170 4b 96 d5 bd f2 1a 81 bd 56 87 45 3d 80 64 9d bd
       -0.10429057 -0.063039675 0.04822477 -0.076851845
000180 be 2e 0c 80 95 0d 21 80 ee 66 02 3f 7a 24 2c 3d
       -1.118794e-39 -3.035444e-39 0.5093831 0.042026974
000190 c8 60 56 3e c2 93 83 be 10 a3 1d bf 41 3e 69 3e
       0.20935357 -0.25698668 -0.6157694 0.22777654
0001a0 59 1d 59 3d 22 7f 78 38 9e 7c f0 bd 46 89 83 3e
       0.053006504 5.924621e-05 -0.11742519 0.2569067
0001b0 c8 13 d4 3d b6 d4 1c be da 59 4f 3d 5c 4d 16 3e
       0.103553355 -0.15315518 0.0506228 0.14677948
0001c0 de d9 e9 31 5f 2c 38 80 1c b8 08 3f 27 40 12 3e
       6.805961e-09 -5.158705e-39 0.5340593 0.14282285
0001d0 60 76 74 3d 08 4c d1 bd 7b 49 70 be ac 9a 90 ba
       0.059683204 -0.1021958 -0.2346553 -0.0011032424
0001e0 eb 8f c9 bd 75 26 96 37 67 6b f4 3d 6f 10 58 3e
       -0.09841903 1.7899301e-05 0.11934548 0.21100019
0001f0 c5 d2 d2 3d 47 17 9c bd 22 54 e1 bd 84 5a e7 3d
       0.10294107 -0.07621627 -0.11002375 0.11296561

mlp.4.bias f4 [8]
000000 59 dd 57 3f 31 07 81 3f 54 15 35 bf 65 e6 2e 3f
       0.84322125 1.008032 -0.7073567 0.68320304
000010 9c d9 52 bd 45 2e 42 3f 35 d8 96 bf ae 26 69 bf
       -0.05147706 0.7585185 -1.1784731 -0.91074646

mlp.6.weight f4 [2, 8]
000000 24 76 a7 be aa 7d 11 bf d6 b3 41 3e 8e 3d 38 3e
       -0.32707322 -0.56832373 0.18916258 0.17992231
000010 61 91 53 bd 80 6f 16 bf 2e b9 9d 3e 22 4a cc 3e
       -0.051652316 -0.58763885 0.30805343 0.3990031
000020 ea b5 54 3d 25 7f a7 3d c9 bd 1e 3e 6b 7c a4 be
       0.0519313 0.08178548 0.15502085 -0.32126173
000030 be 48 da be c0 c8 03 3e 77 5a e1 bc f8 b5 51 3e
       -0.42633623 0.12869549 -0.027508957 0.20479572

mlp.6.bias f4 [2]
000000 fd 64 03 bf d2 d7 4b 3e
       -0.5132597 0.19906548
